…
f1:  0.970310391363023   0.9694444444444444
[0 1 1 1 1 1 1 0 0 1 1 1 1 0 1 1 1 1 1 1 1 1 1 1 1 0 1 1 1 1 1 0 0 0 1 1 0
 1 1 1 1 1 1 1 1 1 1 1 1 1 0 0 0 0 0 0 0 0 0 0 0 0 0 0 0 0 0 0 0 0 0 0 0 0
 0 0 0 0 0 0 0 0 0 0 0 0 0 0 0 0 0 0 0 0 0 0 0 0 0 0 0 0 0 0]
tp  13  fn  12  fp  28  tn  47
accuracy:  0.6
precision:  0.3170731707317073
recall:  0.52
f1:  0.3939393939393939
Model: "sequential_1"
_________________________________________________________________
Layer (type)                 Output Shape              Param #   
=================================================================
conv2d_1 (Conv2D)            (None, 1, 16, 16)         144       
_________________________________________________________________
activation_1 (Activation)    (None, 1, 16, 16)         0         
_________________________________________________________________
max_pooling2d_1 (MaxPooling2 (None, 1, 8, 16)          0         
_________________________________________________________________
conv2d_2 (Conv2D)            (None, 1, 8, 64)          4160      
_________________________________________________________________
activation_2 (Activation)    (None, 1, 8, 64)          0         
_________________________________________________________________
max_pooling2d_2 (MaxPooling2 (None, 1, 4, 64)          0         
_________________________________________________________________
flatten_1 (Flatten)          (None, 256)               0         
_________________________________________________________________
dense_1 (Dense)              (None, 256)               65792     
_________________________________________________________________
activation_3 (Activation)    (None, 256)               0         
_________________________________________________________________
dense_2 (Dense)              (None, 2)                 514       
_________________________________________________________________
activation_4 (Activation)    (None, 2)                 0         
=================================================================
Total params: 70,610
Trainable params: 70,610
Non-trainable params: 0
_________________________________________________________________
None
